ZHECKPOINT/adca-100+/model_95wr.pt (torch, 50139 bytes, 36 tensors)

_batch_norm.mean f4 [16]
0.0 -0.17162979 0.17933758 -0.08104166 -0.008519674 0.0044607236 91.53274 0.92350906
0.0 0.0 0.0 0.0 0.0 0.0 0.0 0.0
00000000: 0000 0000 b8bf 2fbe 45a4 373e 2bf9 a5bd
00000010: 1a96 0bbc 432b 923b c310 b742 176b 6c3f
00000020: 0000 0000 0000 0000 0000 0000 0000 0000
00000030: 0000 0000 0000 0000 0000 0000 0000 0000

_batch_norm.var f4 [16]
1.0 4.5516706 3.8945322 2.772755 0.1723273 0.16416286 4514.578 0.019356608
1.0 1.0 1.0 1.0 1.0 1.0 1.0 1.0
00000000: 0000 803f 49a7 9140 0440 7940 d174 3140
00000010: 9176 303e 4f1a 283e a014 8d45 c091 9e3c
00000020: 0000 803f 0000 803f 0000 803f 0000 803f
00000030: 0000 803f 0000 803f 0000 803f 0000 803f

_batch_norm.var_fix f4 [16]
1.0 4.5516706 3.8945322 2.772755 0.1723273 0.16416286 4514.578 0.019356608
1.0 1.0 1.0 1.0 1.0 1.0 1.0 1.0
00000000: 0000 803f 49a7 9140 0440 7940 d174 3140
00000010: 9176 303e 4f1a 283e a014 8d45 c091 9e3c
00000020: 0000 803f 0000 803f 0000 803f 0000 803f
00000030: 0000 803f 0000 803f 0000 803f 0000 803f

_batch_norm.min f4 [16]
1.0 -5.407665 -5.4125175 -3.1736434 -1.0 -1.0 0.0 0.6003612
0.0 0.0 0.0 0.0 0.0 0.0 0.0 0.0
00000000: 0000 803f 970b adc0 5833 adc0 f91c 4bc0
00000010: 0000 80bf 0000 80bf 0000 0000 46b1 193f
00000020: 0000 0000 0000 0000 0000 0000 0000 0000
00000030: 0000 0000 0000 0000 0000 0000 0000 0000

_batch_norm.max f4 [16]
1.0 5.405015 5.4119 6.3225636 1.0 1.0 249.0 1.299998
1.0 1.0 1.0 1.0 1.0 1.0 1.0 1.0
00000000: 0000 803f e2f5 ac40 492e ad40 7152 ca40
00000010: 0000 803f 0000 803f 0000 7943 5666 a63f
00000020: 0000 803f 0000 803f 0000 803f 0000 803f
00000030: 0000 803f 0000 803f 0000 803f 0000 803f

AT_obs_encoder.0.weight f4 [16, 16]
0.38779998 0.14881794 -0.006810044 -0.3451383 0.16889243 -0.08731402 -0.13946036 0.39352816
0.010049405 0.033846132 0.026713023 0.047562975 0.09425733 0.16810507 0.37403038 0.65364033
0.9524213 0.55443496 0.093083836 0.37570763 -0.19541195 0.0029281937 0.026574774 0.0382876
-0.009441455 -0.014728425 -0.019355146 -0.0010325813 0.060692742 0.010087717 0.08704927 0.16852309
0.8899381 0.30810133 -0.16999832 0.24440345 0.1209538 0.09586319 -0.13978067 -0.39182365
0.008899123 0.036566455 0.0749067 0.08798335 0.099298075 0.26662537 0.2706575 0.3050203
0.3422126 0.0041764784 0.009625992 -0.0047209435 -0.0046118665 0.012060405 -2.7063222 0.021384604
0.026893413 0.07267261 -0.42890573 -0.27869096 0.012309632 -0.6178675 0.34662318 -0.26904365
0.33853793 -0.13749053 -0.03977034 0.12496293 -0.11897608 -0.19384563 0.1471328 -0.41666532
0.03300437 0.03963291 0.07573639 0.07974256 0.09057488 0.1629264 0.20280086 0.37295306
0.8041895 -1.0654986 -0.72623813 0.05601695 -0.03227363 -0.054603096 0.06567925 -0.0012836197
-0.002768826 -0.0006996654 0.0026508565 -0.0059468397 0.0019883155 0.0068047065 0.011702876 -0.009885496
0.11799254 -0.09707931 -0.12698528 0.030890286 -0.032326084 -0.008407463 -0.20950414 0.77079594
0.004741818 0.00920455 0.017147528 0.029888624 0.06537297 0.108421355 0.23631841 0.48338014
0.42015037 0.025030749 -0.122370616 -0.9852504 -0.21038827 -0.11877565 -0.33055198 -0.0055963118
0.02526345 0.03560995 0.010037063 0.03457862 0.06780996 0.12084676 0.26602575 0.4649168
1.4043512 1.0729891 0.1329544 -0.20056018 0.07287385 -0.040246796 -0.033140134 -0.031594362
0.112260155 0.16783182 0.18193509 0.19512418 0.19879724 0.1419512 -0.0054463153 -0.09913159
1.439041 -0.12845866 -1.2760961 -0.06776098 -0.057376053 -0.008253643 -0.035247725 0.054276027
0.085140966 0.12540245 0.14262943 0.15740733 0.1811302 0.16013508 0.07312836 0.039840095
2.2188993 -0.9588406 0.5223512 0.01117499 0.0015783762 -0.0082565835 -0.004650957 -0.07747262
0.0887667 0.14121018 0.15479672 0.16890939 0.19539298 0.16559474 0.057802036 -0.034615364
-0.19979846 0.028526913 0.0017511137 1.7521596 0.05285996 0.08711328 0.0155875515 0.010449668
0.007056045 0.019534027 -0.027670082 -0.0009956213 -0.00966283 -0.03445242 -0.050528828 -0.09647119
0.605616 0.001875369 -0.038967382 0.61848795 -0.1279842 -0.23299347 -0.043504123 0.34123385
-0.012498518 -0.015168521 0.050243124 0.04556797 0.050595682 0.18922974 0.15696158 0.18139188
0.16782627 -0.13603635 -0.06943561 1.7185372 -0.173909 -0.13822652 -0.1361971 0.018335043
0.0048499205 0.0059237466 -0.021312935 -0.0043659806 0.024922615 0.037124354 0.08434331 0.10306665
0.9315756 -0.0041477825 -0.41112798 0.3318667 0.23811522 -0.067934535 -0.03647998 -0.040704377
0.042710982 0.08205611 0.053878225 0.093620606 0.14292485 0.048336912 0.09882151 0.2649574
0.48126242 0.029946623 0.2924253 0.31546062 -0.02343477 0.2530218 0.152521 0.20480137
0.05966953 0.08797464 0.12716891 0.14090542 0.18027996 0.19504924 0.12811008 0.22534017
00000000: b88d c63e bb63 183e ca26 dfbb f8b5 b0be
00000010: 23f2 2c3e b1d1 b2bd b2ce 0ebe 867c c93e
00000020: 42a6 243c 3ea2 0a3d 45d5 da3c 65d1 423d
00000030: fd09 c13d bc23 2c3e e980 bf3e f954 273f
00000040: e2d1 733f 73ef 0d3f bda2 be3d c05c c03e
00000050: 121a 48be f0e6 3f3b 57b3 d93c 75d3 1c3d
00000060: 55b0 1abc 7e4f 71bc af8e 9ebc ae57 87ba
00000070: f498 783d f446 253c e346 b23d 5191 2c3e
00000080: fcd2 633f 75bf 9d3e 0a14 2ebe e644 7a3e
00000090: a0b6 f73d ec53 c43d aa22 0fbe 1c9d c8be
000000a0: a1cd 113c b5c6 153d af68 993d 9d30 b43d
000000b0: ca5c cb3d 1f83 883e 9f93 8a3e 9f2b 9c3e
000000c0: 7d36 af3e d7da 883b 56b6 1d3c 25b2 9abb
000000d0: 241f 97bb 0199 453c 6234 2dc0 c42e af3c
000000e0: 934f dc3c 61d5 943d 8899 dbbe 95b0 8ebe
000000f0: 57ae 493c 912c 1ebf 9878 b13e 17c0 89be
00000100: d854 ad3e 51ca 0cbe 39e6 22bd 91ec ff3d
00000110: bba9 f3bd 787f 46be fba9 163e 2855 d5be
00000120: 972f 073d 1e56 223d ae1b 9b3d 1150 a33d
00000130: 537f b93d 2ed6 263e 07ab 4f3e b4f3 be3e
00000140: 5ddf 4d3f 4262 88bf beea 39bf 0872 653d
00000150: 5b31 04bd 7fa7 5fbd d882 863d 213f a8ba
00000160: 3175 35bb c069 37ba feb9 2d3b b5dd c2bb
00000170: 664e 023b 04fa de3b 6bbd 3f3c c7f6 21bc
00000180: 13a6 f13d 84d1 c6bd 6e08 02be a00d fd3c
00000190: 5b68 04bd 75bf 09bc 4188 56be e252 453f
000001a0: 4161 9b3b aece 163c f978 8c3c fdd8 f43c
000001b0: 44e2 853d 040c de3d 74fd 713e 9a7d f73e
000001c0: f31d d73e 490d cd3c 729d fabd 5f39 7cbf
000001d0: 0670 57be a640 f3bd 1c3e a9be 4461 b7bb
000001e0: 4bf5 ce3c bddb 113d 7e72 243c 50a2 0d3d
000001f0: f3df 8a3d 827e f73d 8734 883e 9309 ee3e
00000200: c8c1 b33f b557 893f 3325 083e a65f 4dbe
00000210: e33e 953d d3d9 24bd f3bd 07bd 1769 01bd
00000220: a7e8 e53d 1bdc 2b3e 314d 3a3e a2ce 473e
00000230: 8191 4b3e a85b 113e 0177 b2bb 8105 cbbd
00000240: 7f32 b83f ab8a 03be 1e57 a3bf 45c6 8abd
00000250: 2703 6bbd 4a3a 07bc eb5f 10bd 8a50 5e3d
00000260: 635e ae3d 8069 003e 730d 123e 632f 213e
00000270: 327a 393e 73fa 233e 52c4 953d 5e2f 233d
00000280: 7202 0e40 9476 75bf cfb8 053f 4e17 373c
00000290: 84e1 ce3a 9f46 07bc 0e67 98bb f7a9 9ebd
000002a0: 51cb b53d 6799 103e 0883 1e3e 95f6 2c3e
000002b0: 1915 483e ab91 293e d4c1 6c3d d7c8 0dbd
000002c0: f897 4cbe 46b1 e93c a085 e53a c446 e03f
000002d0: af83 583d 7368 b23d ee62 7f3c 1635 2b3c
000002e0: 6536 e73b d305 a03c 5eac e2bc 827f 82ba
000002f0: d950 1ebc fb1d 0dbd 51f7 4ebd b092 c5bd
00000300: a609 1b3f f1ce f53a 439c 1fbd 3a55 1e3f
00000310: 4a0e 03be d795 6ebe 6131 32bd 34b6 ae3e
00000320: 96c6 4cbc 6385 78bc bccb 4d3d 7ba5 3a3d
00000330: 6b3d 4f3d 71c5 413e 89ba 203e cbbe 393e
00000340: a6da 2b3e 1d4d 0bbe 4234 8ebd 07f9 db3f
00000350: 3315 32be 418b 0dbe 4177 0bbe 5f33 963c
00000360: 15ec 9e3b fd1b c23b 7798 aebc 8010 8fbb
00000370: 832a cc3c b50f 183d 2fbc ac3d 9c14 d33d
00000380: bd7b 6e3f 1fea 87bb 5e7f d2be 6fea a93e
00000390: 7ad4 733e 4321 8bbd 086c 15bd a2b9 26bd
000003a0: b6f1 2e3d 090d a83d 6aaf 5c3d 29bc bf3d
000003b0: e45a 123e edfc 453d ef62 ca3d 7fa8 873e
000003c0: 0768 f63e 9f52 f53c c5b8 953e 0e84 a13e
000003d0: 46fa bfbc 138c 813e 772e 1c3e 73b7 513e
000003e0: 0968 743d 0c2c b43d 9138 023e 8349 103e
000003f0: 4f9b 383e fdba 473e 4a2f 033e 93bf 663e

AT_obs_encoder.0.bias f4 [16]
0.5038298 0.78925276 0.6357268 0.666411 0.3732303 0.5833107 -0.12024207 0.49727482
1.2006412 1.6651405 1.3795545 -0.1958779 0.5904047 0.4986984 0.5433786 0.7688604
00000000: fdfa 003f 780c 4a3f febe 223f e999 2a3f
00000010: 0b18 bf3e da53 153f 7941 f6bd ce9a fe3e
00000020: 9cae 993f 5323 d53f 3e95 b03f 3794 48be
00000030: c324 173f 6655 ff3e dc1a 0b3f 09d4 443f

AT_obs_encoder.2.weight f4 [16, 16]
-0.1734517 -0.15028574 -0.30383232 -0.01562426 0.15396146 -0.2987163 0.059254248 0.19791314
0.08574301 0.0816957 0.26005328 0.50721705 0.25503367 -0.21890828 0.1573859 -0.57003826
-0.21261798 -0.0017474435 0.038794972 0.28666365 0.31124347 0.51375604 0.16934575 0.14146027
0.6198861 -0.8620232 -0.22276846 -0.6738962 0.063041106 0.53428143 0.12767787 0.20503534
0.08907222 0.09205468 -0.1577226 -0.19329421 -0.2674431 0.09749102 0.04821426 0.47843546
0.0002804702 -0.6425731 0.4101257 0.3441761 0.28960162 -0.2647125 -0.40746713 0.5026906
-0.018438278 0.19736964 -0.05362255 0.0012696005 0.31853673 -0.06144962 0.08693671 -0.5556521
0.14136559 -0.343412 -0.18149315 -0.56218904 0.68282634 -0.7133075 0.18079908 0.2907986
-0.33920574 -0.5149248 0.004326756 0.18516278 0.18710434 -0.35399204 -0.108863674 0.2655492
-0.61322796 -0.10089602 0.4527563 0.08098731 -0.26339716 0.44351253 0.21120478 0.18773234
0.18683212 0.36249736 -0.32523662 -0.34733382 -0.5573208 -0.27429467 -0.20188674 0.18587302
0.7874235 -0.14556749 -0.70996857 0.3834336 0.030184396 0.09244911 0.31171414 0.09423344
-0.33254164 0.18530893 -0.051751804 0.048761003 -0.03381027 0.09167692 0.27504116 -0.071978115
0.38865644 -0.41769102 0.22341746 -0.091692746 -0.1917566 0.4561816 -0.51842797 -0.27736357
0.39887115 -0.34037554 -0.38412318 -0.41278502 -0.2832474 -0.39020565 0.30119154 -0.2467893
-0.23670483 0.15058888 0.44859418 -0.24964726 0.07465964 0.5803593 0.008414159 0.05757217
0.47931856 -0.48817095 0.09918369 0.14206897 0.011116665 0.23683842 0.10001696 0.23485552
0.54612714 -0.48010162 -0.08002629 0.99308395 -0.3403179 0.07383922 -0.09828599 -0.18551825
0.1488588 0.04865434 0.21763493 0.3365685 0.054363675 -0.15242767 0.051526908 0.1601019
-0.42735052 -0.26251483 0.14449741 -0.43196926 -0.03571754 0.07813074 0.5922753 -0.061696753
-0.32360664 0.27182847 0.169092 0.031510692 0.0702955 0.0554705 0.57602686 0.04777676
0.018703429 -0.122712776 0.007639598 0.30787885 -0.38851884 -0.31346667 0.29071733 -0.113493614
0.09361643 0.36520812 -0.1914224 0.23066479 0.2642072 -0.41647175 -0.27954674 -0.20035987
0.37017632 -0.7376432 0.3920931 -0.10476118 -0.4711285 0.09006624 -0.3741051 0.20386599
0.36669794 0.34325224 -0.4425931 -0.07836908 0.09282709 0.19330642 -0.19093117 0.14914067
-0.07885562 -0.20352694 0.3209145 0.6925583 -0.17191972 0.023439303 -0.005885372 -0.15108176
0.27001113 -0.1446164 -0.36061034 0.28337616 0.4197132 -0.09384847 0.17091185 0.47333193
-0.13306594 0.6221846 -0.54746366 0.5670951 -0.21096897 0.31820562 -0.2205346 0.06496909
0.15679981 0.35599124 0.69282347 -0.16785194 -0.019503485 -0.71440077 -0.05987963 0.0921134
0.20510855 0.0070397644 -0.33954695 0.0009639113 0.08583226 0.075145476 -0.054863743 -0.33158448
0.1285358 0.16760562 -0.0056998 -1.949766 0.09825595 -0.04679546 -0.10450644 0.009122221
-0.09457781 -0.036568556 -0.08698564 -0.20901798 0.10737663 0.017592689 0.15178043 0.0068391142
00000000: 539d 31be 81e4 19be e98f 9bbe e5fc 7fbc
00000010: 13a8 1d3e 58f1 98be 95b4 723d bea9 4a3e
00000020: 089a af3d 1350 a73d b425 853e fad8 013f
00000030: c693 823e 7e29 60be c529 213e 07ee 11bf
00000040: 87b8 59be 790a e5ba 7ae7 1e3d 94c5 923e
00000050: 4e5b 9f3e 8485 033f f968 2d3e f6da 103e
00000060: dbb0 1e3f 8dad 5cbf 6a1d 64be 7684 2cbf
00000070: b21b 813d abc6 083f fdbd 023e c9f4 513e
00000080: 7f6b b63d 2a87 bc3d 0982 21be ebee 45be
00000090: 4dee 88be 5fa9 c73d 517c 453d 7ef5 f43e
000000a0: 130c 9339 ac7f 24bf fffb d13e da37 b03e
000000b0: aa46 943e 6688 87be 889f d0be 55b0 003f
000000c0: df0b 97bc 441b 4a3e 52a3 5bbd b968 a63a
000000d0: 3f17 a33e 99b2 7bbd e00b b23d 373f 0ebf
000000e0: 24c2 103e b3d3 afbe 57d9 39be 9feb 0fbf
000000f0: b5cd 2e3f 529b 36bf 6523 393e 8ee3 943e
00000100: 60ac adbe 1dd2 03bf 76c7 8d3b 509b 3d3e
00000110: 4898 3f3e 723e b5be ebf3 debd 11f6 873e
00000120: 82fc 1cbf 93a2 cebd accf e73e addc a53d
00000130: fedb 86be 1314 e33e 1146 583e e83c 403e
00000140: eb50 3f3e 4199 b93e 6a85 a6be bdd5 b1be
00000150: 93ac 0ebf 5a70 8cbe 66bb 4ebe 7f55 3e3e
00000160: 9694 493f a50f 15be 80c0 35bf 6951 c43e
00000170: 4445 f73c f555 bd3d ff98 9f3e 76fd c03d
00000180: e642 aabe a0c1 3d3e b3f9 53bd 9eb9 473d
00000190: a37c 0abd 1cc1 bb3d 32d2 8c3e 4369 93bd
000001a0: fafd c63e 99db d5be 8cc7 643e 68c9 bbbd
000001b0: d85b 44be a290 e93e b2b7 04bf 9902 8ebe
000001c0: d738 cc3e b445 aebe cbab c4be 8f58 d3be
000001d0: ce05 91be 09c9 c7be c735 9a3e 56b6 7cbe
000001e0: c062 72be f933 1a3e 23ae e53e 88a3 7fbe
000001f0: 27e7 983d 6d92 143f 8adb 093c ccd0 6b3d
00000200: 3e69 f53e 8bf1 f9be d220 cb3d 877a 113e
00000210: ac22 363c c585 723e b1d5 cc3d f77d 703e
00000220: fdce 0b3f e1cf f5be d3e4 a3bd c03a 7e3f
00000230: 263e aebe 0439 973d 2a4a c9bd 7ff8 3dbe
00000240: 716e 183e c649 473d b1db 5e3e b552 ac3e
00000250: 72ac 5e3d 0016 1cbe e10d 533d c1f1 233e
00000260: b0cd dabe 5868 86be 21f7 133e 132b ddbe
00000270: 8e4c 12bd 0203 a03d 5b9f 173f bcb5 7cbd
00000280: c5af a5be 1a2d 8b3e 7426 2d3e 5b11 013d
00000290: 16f7 8f3d 0935 633d 7f76 133f 90b1 433d
000002a0: ef37 993c d650 fbbd 9855 fa3b 4ca2 9d3e
000002b0: f1eb c6be b47e a0be e7d8 943e 576f e8bd
000002c0: f9b9 bf3d 8ffc ba3e 3c04 44be 6433 6c3e
000002d0: 2b46 873e c93b d5be c020 8fbe 232b 4dbe
000002e0: c087 bd3e 2fd6 3cbf 6dc0 c83e 088d d6bd
000002f0: c137 f1be a674 b83d b48a bfbe 3fc2 503e
00000300: d5bf bb3e c2be af3e 909b e2be f87f a0bd
00000310: 211c be3d 1ef2 453e 7683 43be 55b8 183e
00000320: 0e7f a1bd 5e69 50be e84e a43e 804b 313f
00000330: b90b 30be c803 c03c 14da c0bb 2db5 1abe
00000340: e63e 8a3e 5216 14be eba1 b8be ae16 913e
00000350: a6e4 d63e a033 c0bd 8403 2f3e 9058 f23e
00000360: 7042 08be 7d47 1f3f 9426 0cbf 252d 113f
00000370: 4008 58be d9eb a23e d2d3 61be 840e 853d
00000380: 2190 203e 7c44 b63e e15c 313f 61e1 2bbe
00000390: c6c5 9fbc f8e2 36bf 5844 75bd f3a5 bc3d
000003a0: fa07 523e d3ad e63b 19d9 adbe feae 7c3a
000003b0: d3c8 af3d dfe5 993d ceb8 60bd 71c5 a9be
000003c0: e49e 033e cfa0 2b3e 63c5 babb ef91 f9bf
000003d0: 6a3a c93d 99ac 3fbd 7907 d6bd 5e75 153c
000003e0: 03b2 c1bd e9c8 15bd 8725 b2bd cf08 56be
000003f0: 47e8 db3d 8b1e 903c 546c 1b3e a61a e03b

AT_obs_encoder.2.bias f4 [16]
-0.10215965 -0.4092215 0.39791694 0.17685227 -0.003794567 0.13885039 0.18890756 0.28379408
0.026357489 -0.2093487 0.032035604 0.400258 0.008395124 -0.07821376 0.23853837 0.27070624
00000000: 1439 d1bd 7b85 d1be c5bb cb3e c318 353e
00000010: 45ae 78bb cc2e 0e3e fc70 413e 754d 913e
00000020: a9eb d73c 815f 56be c437 033d 9eee cc3e
00000030: b48b 093c 892e a0bd 6743 743e 029a 8a3e

MIX_conc_core_f.CT_W_query f4 [16, 16]
3.684022 -7.503912 10.867822 1.1626348 -1.3411574 2.5036583 10.093373 10.854041
0.41832137 -0.29947048 4.3905807 3.86641 2.9925761 7.9892893 0.23002173 -0.5168071
-4.637554 2.5820205 -3.1880236 5.6140633 -3.3737993 -1.8779161 -5.016576 -9.76954
-5.062891 5.4474545 -2.7662199 -2.4005258 -3.9134262 -0.8461433 4.6289988 4.0664434
4.6126833 -5.679587 2.775159 -4.753414 6.7512627 0.956971 2.8964255 2.2632508
2.8332403 -1.025244 5.594364 1.7228391 5.8156557 6.316593 -1.3626956 -6.229032
3.6412227 2.8873131 -2.6635342 -10.780949 4.7442484 -5.6252527 -1.3527648 9.221063
1.9427271 4.795503 -4.9640326 0.18105662 11.253623 -2.021109 4.960452 2.5641031
-5.309323 2.527096 2.5530102 2.833343 -10.657166 5.0364914 2.7723336 2.1204839
2.0293694 -3.6653857 -10.203634 -5.1641545 -8.264741 -9.997494 -3.9354377 5.3090115
-3.2202098 0.05591007 0.8770211 -2.358069 -2.7942781 4.0254526 2.4916794 0.37067276
1.000853 -2.175254 -3.8022568 -4.3182993 -0.8691584 -3.8384128 -3.614437 0.047524393
-4.876403 2.244661 0.5642388 3.7301571 -8.609247 2.568191 2.634889 -1.315033
-2.4885585 -1.3300138 -6.9168644 -5.3838496 -2.9945953 -4.3070745 -0.70076555 4.576762
-10.084459 0.8192883 -3.625893 -0.54975855 -2.1951308 3.234064 -3.6999593 -11.36874
-7.182781 2.5674996 -1.7277778 -9.258117 -3.1130168 -3.9127457 3.5108721 -3.2849724
2.0331 -12.033585 11.801859 -0.7765201 2.1601546 10.564091 9.869048 -3.0781467
11.526043 -11.391789 3.214391 -2.4313881 -5.0094714 2.5951748 -12.89195 -9.195638
0.16291606 1.0312854 -0.4012029 -3.7174087 4.0612164 -3.632642 -3.5490777 4.363279
-1.1710768 5.981129 0.112811625 3.3269289 -0.38729483 -0.77869886 4.887972 1.0736009
3.8540595 -5.2964244 0.20252061 3.5553408 7.3009996 -1.1291845 -1.2778654 -12.795933
2.7336524 -3.2062771 9.759569 4.3216558 1.2918032 9.750474 -1.3550518 -6.2419143
4.2163334 -1.2834386 3.166818 1.6311992 -0.74628645 0.19452815 2.6838753 2.313913
3.0912247 -1.1416173 -0.54712 2.0579994 0.27690223 2.0186005 -1.9712158 1.0432372
-0.5348432 -4.891386 -1.0603898 8.139125 0.2920693 0.52550346 -1.6590819 -15.598635
-2.2514184 -3.1570315 9.6738825 0.07855267 -0.66188663 8.932464 -1.7063338 -4.846174
-5.4009295 -4.757633 4.3228188 -1.2691005 -5.2762604 6.366165 7.358177 4.351254
-2.4790325 -4.08216 -1.7739449 -6.0417256 -1.1102774 0.41319364 -5.06285 -2.1994011
-1.1941438 0.7502919 -1.8151445 7.3550305 -0.28451642 -1.9713285 -3.007805 -11.07527
-1.4905059 0.86460125 3.1536636 1.6450244 -2.2366705 3.720397 1.1154033 1.04305
0.9106711 -0.9792121 2.8485577 1.8782431 -1.8727145 1.615046 2.5661988 4.0989637
1.9842682 -0.6379181 -0.23971364 0.719384 -2.5847974 -1.8866485 -2.7996495 -0.050382443
00000000: 04c7 6b40 0c20 f0c0 99e2 2d41 38d1 943f
00000010: 0cab abbf f03b 2040 757e 2141 27aa 2d41
00000020: 382e d63e 3254 99be a37f 8c40 4373 7740
00000030: 5e86 3f40 42a8 ff40 d18a 6b3e 784d 04bf
00000040: d866 94c0 d33f 2540 9408 4cc0 68a6 b340
00000050: 54ec 57c0 8e5f f0bf ca87 a0c0 0950 1cc1
00000060: 3403 a2c0 8c51 ae40 bf09 31c0 37a2 19c0
00000070: 9375 7ac0 d99c 58bf c220 9440 4e20 8240
00000080: 1a9b 9340 2dbf b5c0 349c 3140 f81b 98c0
00000090: 580a d840 0dfc 743f 095f 3940 1ad9 1040
000000a0: cf53 3540 323b 83bf 0805 b340 fe85 dc3f
000000b0: da19 ba40 8821 ca40 cf6c aebf 3b54 c7c0
000000c0: cb09 6940 bdc9 3840 5877 2ac0 c47e 2cc1
000000d0: e2d0 9740 1202 b4c0 6627 adbf 7989 1341
000000e0: 48ab f83f c374 9940 5bd9 9ec0 e866 393e
000000f0: d70e 3441 da59 01c0 06bc 9e40 441a 2440
00000100: f9e5 a9c0 f1bb 2140 8564 2340 7e55 3540
00000110: c083 2ac1 f02a a140 ea6d 3140 02b6 0740
00000120: 30e1 0140 ae95 6ac0 1642 23c1 c140 a5c0
00000130: 613c 04c1 bcf5 1fc1 36de 7bc0 6ce3 a940
00000140: eb17 4ec0 f501 653d 7484 603f 9aea 16c0
00000150: 74d5 32c0 82d0 8040 ad77 1f40 d2c8 bd3e
00000160: f31b 803f 5d37 0bc0 2d58 73c0 822f 8ac0
00000170: 2a81 5ebf 8ea8 75c0 f052 67c0 f0a8 423d
00000180: 7e0b 9cc0 87a8 0f40 f471 103f e5ba 6e40
00000190: 7abf 09c1 3e5d 2440 05a2 2840 0053 a8bf
000001a0: 8b44 1fc0 e43d aabf f456 ddc0 7f48 acc0
000001b0: 73a7 3fc0 8ed3 89c0 5f65 33bf d674 9240
000001c0: f259 21c1 e1bc 513f a20e 68c0 fabc 0cbf
000001d0: 067d 0cc0 e8fa 4e40 22cc 6cc0 5ce6 35c1
000001e0: 58d9 e5c0 ea51 2440 d327 ddbf 3f21 14c1
000001f0: ab3b 47c0 6d6a 7ac0 21b2 6040 fd3c 52c0
00000200: 4f1e 0240 9089 40c1 6ad4 3c41 05ca 46bf
00000210: f93f 0a40 8406 2941 9fe7 1d41 5b00 45c0
00000220: ac6a 3841 c544 36c1 95b8 4d40 dd9b 1bc0
00000230: 974d a0c0 5817 2640 6d45 4ec1 5521 13c1
00000240: 78d3 263e 2901 843f 776a cdbe 06ea 6dc0
00000250: 7cf5 8140 357d 68c0 1724 63c0 fb9f 8b40
00000260: d8e5 95bf 6965 bf40 c809 e73d 67ec 5440
00000270: 824b c6be cf58 47bf 446a 9c40 c16b 893f
00000280: e9a8 7640 4f7c a9c0 9061 4f3e b48a 6340
00000290: caa1 e940 1e89 90bf 1891 a3bf 24bc 4cc1
000002a0: 29f4 2e40 a533 4dc0 3227 1c41 014b 8a40
000002b0: cf59 a53f f101 1c41 5672 adbf c3bd c7c0
000002c0: 34ec 8640 b747 a4bf 25ad 4a40 23cb d03f
000002d0: a10c 3fbf 6332 473e 9dc4 2b40 2717 1440
000002e0: a0d6 4540 8420 92bf 0e10 0cbf 43b6 0340
000002f0: 21c6 8d3e c030 0140 cd50 fcbf cc88 853f
00000300: 7ceb 08bf 3c86 9cc0 daba 87bf db39 0241
00000310: 1b8a 953e 6587 063f cc5c d4bf 0294 79c1
00000320: 3d17 10c0 ce0c 4ac0 39c8 1a41 39e0 a03d
00000330: 6771 29bf 5feb 0e41 2569 dabf db13 9bc0
00000340: 6ad4 acc0 883e 98c0 8854 8a40 e371 a2bf
00000350: 20d7 a8c0 a0b7 cb40 3076 eb40 793d 8b40
00000360: 78a8 1ec0 0ea1 82c0 a010 e3bf d155 c1c0
00000370: 921d 8ebf 1e8e d33e de02 a2c0 fdc2 0cc0
00000380: b4d9 98bf 2113 403f a856 e8bf 695c eb40
00000390: 23ac 91be 7e54 fcbf e17f 40c0 4e34 31c1
000003a0: e6c8 bebf 8256 5d3f a0d5 4940 2990 d23f
000003b0: 9c25 0fc0 fc1a 6e40 89c5 8e3f aa82 853f
000003c0: be21 693f a5ad 7abf c54e 3640 456a f03f
000003d0: 1cb5 efbf d4b9 ce3f 9a3c 2440 b62a 8340
000003e0: 80fc fd3f 9a4e 23bf 7e77 75be 8d29 383f
000003f0: 526d 25c0 b37d f1bf 752d 33c0 d25d 4ebd

MIX_conc_core_f.CT_W_key f4 [16, 16]
-1.3234713 2.2004378 -7.5480165 -1.8497139 3.6871827 -7.4099846 -5.220875 -3.1956053
-0.18391208 -0.49381268 0.06839627 2.0648706 0.44319275 0.8342321 1.2649169 0.43105337
2.217489 1.6078374 9.910006 -1.8894702 -4.6292133 9.051245 9.554134 7.567791
3.9082005 -8.25091 -3.4178045 3.8536663 -4.8415956 -3.8293438 -8.708651 3.952786
6.6722255 -2.4097188 -0.05743893 -11.107505 6.9387255 -4.228635 -0.017345764 1.1910897
2.2742035 0.32821286 2.0786145 4.744314 11.625771 2.452618 1.1477513 -3.2003882
-0.047327127 -3.6232722 3.9104333 -0.7347457 -0.86435705 3.767758 4.648521 1.0165727
-1.0080421 -9.254368 0.9866129 -0.28279522 2.8399699 2.5984485 -1.2924985 -0.9946648
2.5703971 -0.12520398 -1.2871146 4.21113 1.4360473 -8.692314 -3.3328187 -2.458558
-1.0898497 6.2520146 1.0024567 5.751859 0.46036392 2.9969904 5.250126 1.2368455
-3.7360766 -4.6561637 5.151823 2.5914023 -2.2981 16.627172 4.998697 -2.340501
0.69024557 -10.4421835 -0.17252232 -9.9683075 -3.4779177 0.9667448 -5.66201 -2.1362772
6.9231634 -1.6970572 5.026423 -3.3779674 2.996837 -3.7077436 3.445303 2.4664052
4.190254 -0.031975605 0.58351505 7.943673 6.0476985 1.4888728 -2.2069852 0.053383585
0.98787934 -2.4915214 -0.45662504 -10.868162 5.3778834 -4.8393364 -0.78162634 0.45659485
-0.55410236 6.5026717 0.68644834 0.44125023 9.991031 1.9648701 3.932306 -2.1995883
3.0648012 -2.6621923 3.1189382 1.1219248 3.1941638 2.8517482 1.5622033 -0.027353842
3.6017396 -7.946844 1.892251 4.7946 -2.8971665 1.6910783 -5.6021905 -2.284716
3.1040637 4.5442815 1.9665163 -7.374549 -2.5091844 0.40176308 3.796536 3.5235593
4.215636 -2.5137007 -6.2859597 -2.8485303 4.827488 -3.2570117 -2.7463236 5.863513
2.4827323 1.1005496 2.022107 4.1495643 -2.0024872 -0.57117563 1.4439602 0.62687445
2.9658024 -5.0662966 -1.0876435 4.788745 -3.364817 -0.6563109 -3.3585002 2.2864447
11.412524 -3.551619 4.163006 -3.826767 6.091334 -4.9923644 1.283927 1.6988521
4.442123 -1.7228298 3.2165349 12.319004 8.058292 3.4073503 -1.3829848 -2.4415724
1.2746315 0.1041099 -0.49254322 -6.9386735 3.6307778 -5.933702 -2.4529393 1.4055986
-0.7865967 6.0492063 1.1177632 5.097051 1.0435102 0.19963625 4.729814 -1.0063205
-6.073767 2.796521 -0.55451626 -4.449171 -4.3399696 7.008051 -1.442301 2.3566506
-1.5205164 1.5618927 -3.093926 -8.078666 -9.191443 -5.318698 0.5790403 1.1977572
0.11858205 -1.3772967 7.361504 4.9320717 -3.387247 9.853248 4.2995224 -0.39850643
4.0631623 -7.700341 -2.1359832 -0.75212467 -7.237929 -1.2393881 -6.259087 1.75895
-5.106068 -11.988622 -8.4075365 16.47152 9.831378 -5.609576 -9.703455 -14.086352
-10.07786 -0.19759785 15.51383 5.430316 -2.2830906 13.449611 5.4206724 -12.902595
00000000: 8267 a9bf f9d3 0c40 5a89 f1c0 6dc3 ecbf
00000010: cdfa 6b40 981e edc0 6811 a7c0 cc84 4cc0
00000020: 7353 3cbe 04d5 fcbe 5813 8c3d d726 0440
00000030: 29ea e23e 3c90 553f cce8 a13f 07b3 dc3e
00000040: 57eb 0d40 9ecd cd3f 628f 1e41 29da f1bf
00000050: 8422 94c0 e6d1 1041 bcdd 1841 582b f240
00000060: f51f 7a40 ba03 04c1 4fbd 5ac0 78a2 7640
00000070: 5aee 9ac0 f813 75c0 a256 0bc1 72fa 7c40
00000080: df82 d540 d538 1ac0 1545 6bbd 57b8 31c1
00000090: 0a0a de40 fa50 87c0 b418 8ebc a175 983f
000000a0: 8d8c 1140 840b a83e 0508 0540 6cd1 9740
000000b0: 2803 3a41 b1f7 1c40 84e9 923f 29d3 4cc0
000000c0: 17da 41bd b1e3 67c0 8a44 7a40 4b18 3cbf
000000d0: 8146 5dbf f222 7140 afc0 9440 0e1f 823f
000000e0: 8607 81bf e411 14c1 aa92 7c3f 89ca 90be
000000f0: 11c2 3540 fb4c 2640 9770 a5bf 5aa2 7ebf
00000100: 6381 2440 7935 00be 2cc0 a4bf 94c1 8640
00000110: 66d0 b73f b813 0bc1 e74c 55c0 0459 1dc0
00000120: 3280 8bbf 8110 c840 8050 803f 3b0f b840
00000130: d2b4 eb3e b1ce 3f40 0801 a840 f450 9e3f
00000140: e11b 6fc0 4bff 94c0 bcdb a440 89d9 2540
00000150: 1214 13c0 7304 8541 53f5 9f40 c5ca 15c0
00000160: efb3 303f 2f13 27c1 b1a9 30be 307e 1fc1
00000170: 3496 5ec0 967c 773f 302f b5c0 c4b8 08c0
00000180: 8e8a dd40 2c39 d9bf 75d8 a040 9e30 58c0
00000190: 2dcc 3f40 ac4b 6dc0 d87f 5c40 95d9 1d40
000001a0: 9016 8640 daf8 02bd 3e61 153f 9232 fe40
000001b0: bf86 c140 6293 be3f 3f3f 0dc0 bfa8 5a3d
000001c0: a9e5 7c3f 1675 1fc0 c2ca e9be fee3 2dc1
000001d0: 9f17 ac40 d8db 9ac0 aa18 48bf cdc6 e93e
000001e0: a7d9 0dbf e315 d040 14bb 2f3f 8deb e13e
000001f0: 43db 1f41 dd80 fb3f e7aa 7b40 0ec6 0cc0
00000200: b425 4440 5c61 2ac0 af9c 4740 3b9b 8f3f
00000210: 2e6d 4c40 0b83 3640 47f6 c73f 2a15 e0bc
00000220: e782 6640 8c4c fec0 4835 f23f 5d6d 9940
00000230: 2d6b 39c0 4175 d83f 2545 b3c0 c938 12c0
00000240: fba8 4640 c16a 9140 ceb6 fb3f 4efc ebc0
00000250: 7a96 20c0 e4b3 cd3e 72fa 7240 ff81 6140
00000260: 7de6 8640 79e0 20c0 9526 c9c0 524e 36c0
00000270: c87a 9a40 e172 50c0 c4c3 2fc0 e6a1 bb40
00000280: 16e5 1e40 cfde 8c3f 336a 0140 3bc9 8440
00000290: c028 00c0 9138 12bf b0d3 b83f d87a 203f
000002a0: b5cf 3d40 1a1f a2c0 e737 8bbf 663d 9940
000002b0: 2959 57c0 fe03 28bf abf1 56c0 1c55 1240
000002c0: b399 3641 ba4d 63c0 5837 8540 c0e9 74c0
000002d0: 35ec c240 73c1 9fc0 b857 a43f fc73 d93f
000002e0: df25 8e40 b085 dcbf b5db 4d40 a41a 4541
000002f0: c4ee 0041 0712 5a40 a505 b1bf b942 1cc0
00000300: 2027 a33f 9237 d53d a02e fcbe 9d09 dec0
00000310: aa5e 6840 e3e0 bdc0 f5fc 1cc0 a8ea b33f
00000320: 675e 49bf 1993 c140 dd12 8f3f 0b1b a340
00000330: be91 853f 726d 4c3e a35a 9740 1ccf 80bf
00000340: 4d5c c2c0 33fa 3240 c7f4 0dbf 9c5f 8ec0
00000350: 08e1 8ac0 f441 e040 529d b8bf 5dd3 1640
00000360: 48a0 c2bf 1aec c73f e202 46c0 3742 01c1
00000370: 2710 13c1 c632 aac0 fc3b 143f 1c50 993f
00000380: 25db f23d 424b b0bf 7191 eb40 88d3 9d40
00000390: a8c8 58c0 e7a6 1d41 b095 8940 0909 ccbe
000003a0: 6d05 8240 3269 f6c0 f3b3 08c0 3e8b 40bf
000003b0: 1d9d e7c0 45a4 9ebf 714a c8c0 4625 e13f
000003c0: e964 a3c0 65d1 3fc1 4585 06c1 acc5 8341
000003d0: 534d 1d41 a681 b3c0 5a41 1bc1 b361 61c1
000003e0: ea3e 21c1 1757 4abe a638 7841 26c5 ad40
000003f0: 281e 12c0 9b31 5741 2676 ad40 0771 4ec1

MIX_conc_core_f.CT_W_val f4 [16, 16]
-0.34721756 -0.44673175 0.72808295 -1.8155416 0.97503984 0.9828909 -0.36092725 1.2271396
0.2447533 1.1693051 0.17263007 0.4688574 -2.0085726 -0.027744368 -0.15544459 1.6034166
0.90699744 0.09845776 0.405656 -0.99326295 0.60465246 -0.6776551 -0.60017097 -0.17066447
0.0038962124 1.4339138 -0.043317948 -0.17936987 0.97098255 -0.48296055 0.43747306 0.72474444
-0.4207424 -0.6882173 -0.9626287 -0.3913395 1.6686687 -0.14441973 -0.103571095 -0.9520979
-0.24027774 -0.013001014 0.6319183 0.28152722 -0.5660821 -0.31902495 0.12156 -0.4338893
-0.021585809 -0.20159362 0.5958833 -0.7616061 0.41365245 -1.4998982 0.57604045 -0.1111693
0.20136961 -0.08289653 -0.072374955 0.0861102 0.41509515 0.26252162 -0.094991095 0.406192
-1.128577 -0.72487575 -0.4620862 0.485044 -0.0786763 -0.11802905 -0.16024914 -0.6851107
-0.049233247 -0.4283288 0.48587468 0.22535259 -1.1944528 -0.2566807 0.091653466 0.110453546
-0.38559777 -0.14100973 -0.8498415 -0.24550968 -0.13384853 0.3545419 -0.42938128 -0.1571798
-0.112859525 -0.082358584 0.4242292 0.136286 1.7908503 -0.25907975 -0.5462413 0.26487133
0.1788792 0.040026598 0.8006835 -0.7529047 0.6613381 0.5957174 0.6284695 -0.6404756
-0.14991686 -0.68866783 0.5179341 -0.32864624 0.18619624 0.23503645 0.39157557 -0.46546033
0.20871773 0.1073055 -0.5284917 0.78625226 0.9685402 0.32631332 -0.09406662 0.00054066925
0.20841506 0.5723265 -0.5984107 -0.2753934 -0.66639113 0.00255002 0.31177017 0.027394073
-0.2063223 0.259423 0.1484553 0.8289722 0.84627914 -0.46675467 0.35642177 -0.7369235
0.035059076 -0.91511184 -0.32590804 -0.2478894 0.6850511 0.25316226 0.8907164 2.2795029
1.7109107 0.2325043 -1.0358018 0.7410134 0.10363946 -0.2608363 -0.17700583 -0.28631046
-0.6225596 2.3061032 -1.4660312 -0.25446638 -0.9020514 -0.1838905 -0.29897034 1.3718066
-0.41396737 -0.78367466 -0.20844689 0.52097404 -0.36307564 -0.5104176 -0.36474717 -0.8024122
-0.4450217 0.564958 0.89234877 -0.3693191 0.5632744 -0.15966696 0.86882585 -0.20853016
-0.45777994 0.6452037 0.7171745 -0.69472617 1.0152236 0.2538068 -0.153365 -1.1764741
0.13427891 -0.24947937 -0.67982936 -0.10606695 0.16810776 0.27053028 -0.21494415 -0.55742484
1.6032393 0.35638696 0.44892883 -0.5536851 0.40840173 -1.1511941 0.14726779 -0.0835423
-0.03976123 0.06392754 -0.5655864 0.029744774 -0.76453155 0.1353436 -0.90546805 -0.33331525
0.0042381207 0.25669685 0.89983946 -0.63418895 -1.0339137 -0.81642157 0.12298115 1.356411
-0.018276613 0.054404825 -0.84143436 -0.12919325 0.82158583 0.189611 0.23519525 -1.3057295
0.68272954 -0.54819715 -0.439986 -0.5192746 -0.32928026 -0.13074474 0.3311711 -0.15002692
-0.06121781 0.61470366 -0.8050866 0.27984074 1.65155 -0.033242293 0.04614037 0.11722914
-5.8335915 -0.46685234 1.4890153 1.0408521 1.70422 2.3713403 0.09671935 0.47957274
-0.088115044 -1.8266615 2.525349 -0.15538421 0.12611312 -0.09039789 1.258656 1.3309944
00000000: 80c6 b1be 06ba e4be a563 3a3f ab63 e8bf
00000010: 369c 793f bd9e 7b3f 75cb b8be e912 9d3f
00000020: 9ca0 7a3e caab 953f f0c5 303e 140e f03e
00000030: 748c 00c0 2848 e3bc de2c 1fbe c13c cd3f
00000040: fc30 683f 39a4 c93d 25b2 cf3e 7b46 7ebf
00000050: 81ca 1a3f ce7a 2dbf cea4 19bf abc2 2ebe
00000060: 9957 7f3b 7d8a b73f 296e 31bd bcac 37be
00000070: 5092 783f 9b46 f7be 78fc df3e da88 393f
00000080: 8c6b d7be 022f 30bf d66e 76bf a75d c8be
00000090: f096 d53f c4e2 13be 151d d4bd b0bc 73bf
000000a0: 5e0b 76be 3402 55bc 66c5 213f 5624 903e
000000b0: c2ea 10bf 3d57 a3be 73f4 f83d bd26 debe
000000c0: b9d4 b0bc 8f6e 4ebe cf8b 183f 9ef8 42bf
000000d0: 41ca d33e aafc bfbf 6377 133f bbac e3bd
000000e0: d633 4e3e a8c5 a9bd 5239 94bd 8b5a b03d
000000f0: 5a87 d43e 3c69 863e b18a c2bd 66f8 cf3e
00000100: 3675 90bf 7591 39bf 9096 ecbe b057 f83e
00000110: 0a21 a1bd 37b9 f1bd 5a18 24be 6a63 2fbf
00000120: cda8 49bd ea4d dbbe 91c4 f83e d4c2 663e
00000130: d4e3 98bf a76b 83be d0b4 bb3d 7835 e23d
00000140: 126d c5be db64 10be 368f 59bf e466 7bbe
00000150: 970f 09be 8486 b53e ddd7 dbbe bef3 20be
00000160: e522 e7bd 9eab a8bd 9234 d93e 8f8e 0b3e
00000170: 953a e53f 1aa6 84be 78d6 0bbf 379d 873e
00000180: 1c2c 373e eef2 233d 98f9 4c3f 5dbe 40bf
00000190: 744d 293f ef80 183f 61e3 203f 35f6 23bf
000001a0: ce83 19be 894c 30bf 5497 043f 5244 a8be
000001b0: 3aaa 3e3e 65ad 703e 987c c83e d150 eebe
000001c0: 1aba 553e fcc2 db3d 3b4b 07bf d447 493f
000001d0: 40f2 773f 8a12 a73e 00a6 c0bd b3bb 0d3a
000001e0: c26a 553e fd83 123f 7231 19bf 5d00 8dbe
000001f0: 9c98 2abf 3d1e 273b 57a0 9f3e 8969 e03c
00000200: 2746 53be 17d3 843e ab04 183e 8637 543f
00000210: c0a5 583f 78fa eebe ea7c b63e 05a7 3cbf
00000220: 1b9a 0f3d c544 6abf 6bdd a6be b8d6 7dbe
00000230: 825f 2f3f 7c9e 813e fd05 643f 60e3 1140
00000240: 1fff da3f 9b15 6e3e 2795 84bf 0eb3 3d3f
00000250: ed40 d43d 568c 85be 0441 35be 4997 92be
00000260: 1160 1fbf 3297 1340 e9a6 bbbf 6b49 82be
00000270: d7ec 66bf cb4d 3cbe a412 99be 5c97 af3f
00000280: 88f3 d3be e79e 48bf 1a73 55be 8e5e 053f
00000290: 0de5 b9be baaa 02bf 24c0 babe e36a 4dbf
000002a0: e2d9 e3be 16a1 103f f870 643f 6517 bdbe
000002b0: c032 103f bc7f 23be 5f6b 5e3f ee88 55be
000002c0: 2262 eabe 122c 253f bf98 373f 93d9 31bf
000002d0: d9f2 813f f7f2 813e b70b 1dbe b496 96bf
000002e0: 6980 093e 8577 7fbe 4c09 2ebf a139 d9bd
000002f0: 7124 2c3e f282 8a3e 521a 5cbe 65b3 0ebf
00000300: f236 cd3f 5a78 b63e 00da e53e 4fbe 0dbf
00000310: 081a d13e 545a 93bf 5ecd 163e 3a18 abbd
00000320: acdc 22bd 71ec 823d 45ca 10bf 50ab f33c
00000330: 57b8 43bf 8397 0a3e c1cc 67bf 4ca8 aabe
00000340: efdf 8a3b c56d 833e e15b 663f 355a 22bf
00000350: 4957 84bf 0101 51bf 8bdd fb3d e09e ad3f
00000360: d6b8 95bc 98d7 5e3d 3e68 57bf 3c4b 04be
00000370: 7353 523f 6329 423e 06d7 703e 2522 a7bf
00000380: 5dc7 2e3f a656 0cbf d845 e1be 2eef 04bf
00000390: 6c97 a8be f3e1 05be 428f a93e a8a0 19be
000003a0: 87bf 7abd 385d 1d3f 281a 4ebf 4947 8f3e
000003b0: fe65 d33f 1229 08bd affd 3c3d d515 f03d
000003c0: c8ac bac0 4507 efbe 0e98 be3f a43a 853f
000003d0: e223 da3f 0ac4 1740 cb14 c63d 8f8a f53e
000003e0: a975 b4bd 0bd0 e9bf 519f 2140 0a1d 1fbe
000003f0: cc23 013e 8722 b9bd a41b a13f 065e aa3f

MIX_conc_core_f.CT_motivate_mlp.0.weight f4 [16, 32]
-6.210879 0.8930531 1.2583303 -1.8968338 -1.339517 -2.872487 -1.3884856 1.4605726
-2.9775374 1.742742 2.8709154 -0.13033113 6.856622 0.5984718 1.6707578 0.93935674
-0.41264042 -0.0012871573 -0.10130922 -0.28511816 0.309479 0.2632569 0.1950727 -0.19703136
-0.01911464 1.0461087 -0.31058487 0.6355032 0.38147098 0.40060923 -0.78869575 -0.117324635
2.6508846 -3.899383 3.415312 -2.0939395 1.2524786 -1.6121234 -1.0353936 2.9826634
-0.76281506 1.0411451 -1.7352786 -0.93611777 2.2849188 0.3570259 -2.4381335 -1.049578
0.027549814 0.46122655 1.598644 -0.757385 -1.0314293 -0.045064416 -0.15251672 -0.9145005
0.22873962 -0.85659635 0.93724275 -0.24751161 1.1102585 -0.08943777 0.27143165 0.60819024
-0.27865836 -0.46261072 0.4824487 -1.6979852 -2.728215 -0.709442 -3.0259416 -1.0606647
-0.18542738 0.45905095 2.5645068 -0.9809098 1.9662739 0.7138967 2.3812895 -0.10090968
0.30813703 0.17443205 -0.50978667 0.049279835 1.1379758 0.4763705 -0.06946781 0.031105649
0.09290181 -0.33873633 -0.47693762 0.045763258 -0.13349007 -0.009302098 -0.25122818 0.13444483
3.3373258 -6.6650615 0.13814881 -6.352287 3.560609 -4.839982 -3.256563 1.7487019
1.3960869 2.7306612 -0.5060192 -1.8676183 0.5835766 1.8994557 -5.293282 1.1784607
0.30036625 0.07659457 0.11620317 -1.6353862 0.92891127 -0.06499978 -0.122966036 -0.7132436
-0.124516636 -0.9119813 -0.4045011 0.21654011 2.5487158 0.219358 0.043106962 0.86272544
0.0635372 -2.9562266 -1.6937442 -2.1232433 1.4030119 -2.3993595 -2.058824 0.7017818
-2.0880766 0.7304236 -0.2099493 -2.7776957 -0.20959882 0.82658654 -2.2552736 0.028293189
-0.19389156 -0.051448878 0.045511965 -0.91490227 0.9513935 0.08266041 0.028191159 -0.8602854
0.06741678 0.005388122 -0.06542454 -0.01843302 1.185351 -0.046001215 0.07752146 0.39726573
8.69747 1.4672602 1.850232 2.360201 0.025552435 -1.3721131 0.045638286 1.0873824
0.36818433 3.7188935 -0.2776672 1.8578153 1.3976477 -0.8799539 0.2598 0.79471207
-1.5566999 -0.2422546 -2.2891126 2.7766309 -1.7493922 0.21411677 -0.010966985 -2.8120177
0.0027493073 -1.6359185 0.9706143 0.14053927 1.5695388 -0.19020227 -0.38167268 -3.5426583
2.483749 -1.3534347 2.672556 -0.9929733 2.3505628 -3.3745322 0.015905028 2.4155133
-0.3838502 2.4402099 -0.5515551 0.72528374 1.8805659 -3.0836763 -2.8832672 0.0636539
0.2604176 0.056475483 -0.36418495 -0.78680414 -0.99218124 -0.050889727 -0.028351437 0.3860646
-0.02075857 -0.004012395 -0.14291306 0.045995202 1.6410476 -0.0040991227 -0.14942423 0.06775533
-1.6641642 -0.47165772 -3.3691108 -0.73348755 -1.5248454 0.90027714 -1.0920187 -1.1584945
-1.2656416 -1.5068254 0.76427585 -2.541334 -1.706488 3.0943294 1.2129607 -0.04254072
-0.3132574 -0.08779234 0.07026446 -0.3121936 1.2156125 0.072425395 0.058759563 -0.9869298
-0.06593707 0.05542815 0.049231242 0.07662917 -0.7136538 -0.012518482 -0.054374315 0.3075421
00000000: 85bf c6c0 219f 643f f810 a13f 73cb f2bf
00000010: 4b75 abbf d4d6 37c0 e5b9 b1bf 0bf4 ba3f
00000020: f98f 3ec0 2b12 df3f 14bd 3740 8675 05be
00000030: 7369 db40 7335 193f 64db d53f af79 703f
00000040: 9b45 d3be d5b5 a8ba 357b cfbd 02fb 91be
00000050: 0874 9e3e 9cc9 863e 23c1 473e 97c2 49be
00000060: 4e96 9cbc e4e6 853f fb04 9fbe 56b0 223f
00000070: 2a50 c33e a71c cd3e f7e7 49bf e647 f0bd
00000080: 18a8 2940 7e8f 79c0 7994 5a40 1b03 06c0
00000090: 3851 a03f 0f5a cebf c787 84bf f5e3 3e40
000000a0: d947 43bf 3e44 853f 9c1d debf 6aa5 6fbf
000000b0: 1c3c 1240 19cc b63e 610a 1cc0 9258 86bf
000000c0: 26b0 e13c e325 ec3e 5ea0 cc3f fce3 41bf
000000d0: e005 84bf 7795 38bd 582d 1cbe b41c 6abf
000000e0: b83a 6a3e e649 5bbf 24ef 6f3f af73 7dbe
000000f0: f31c 8e3f 262b b7bd 17f9 8a3e 5bb2 1b3f
00000100: 4fac 8ebe 50db ecbe 8403 f73e 9457 d9bf
00000110: 139b 2ec0 fe9d 35bf 07a9 41c0 dcc3 87bf
00000120: ade0 3dbe ba08 eb3e e120 2440 e81c 7bbf
00000130: ddae fb3f efc1 363f 0c67 1840 bca9 cebd
00000140: 23c4 9d3e 519e 323e 6181 02bf a7d9 493d
00000150: 31a9 913f d6e6 f33e 2445 8ebd 46d1 fe3c
00000160: 4e43 be3d d96e adbe 2b31 f4be 4172 3b3d
00000170: 9fb1 08be d467 18bc fba0 80be e8ab 093e
00000180: bf96 5540 2f48 d5c0 e276 0d3e ef45 cbc0
00000190: 05e1 6340 22e1 9ac0 876b 50c0 77d5 df3f
000001a0: fab2 b23f 27c3 2e40 798a 01bf 1e0e efbf
000001b0: 4765 153f 5d21 f33f 9162 a9c0 cdd7 963f
000001c0: 9bc9 993e 9ddd 9c3d edfb ed3d 5654 d1bf
000001d0: 21cd 6d3f 9b1e 85bd 9ed5 fbbd 2297 36bf
000001e0: 9402 ffbd 9b77 69bf c51a cfbe b1bc 5d3e
000001f0: 291e 2340 629f 603e ed90 303d 93db 5c3f
00000200: cb1f 823d d132 3dc0 9ccc d8bf 38e3 07c0
00000210: e595 b33f 1b8f 19c0 c6c3 03c0 f9a7 333f
00000220: 0ca3 05c0 0bfd 3a3f f3fc 56be c4c5 31c0
00000230: 13a1 56be 2d9b 533f 6756 10c0 1ec7 e73c
00000240: 828b 46be 0fbc 52bd c16a 3a3d 0937 6abf
00000250: 868e 733f dc49 a93d 25f1 e63c aa3b 5cbf
00000260: cf11 8a3d d88e b03b 4dfd 85bd d800 97bc
00000270: 95b9 973f c56b 3cbd 92c3 9e3d 6a66 cb3e
00000280: d628 0b41 2fcf bb3f 67d4 ec3f 880d 1740
00000290: 5753 d13c 67a1 afbf 36ef 3a3d 592f 8b3f
000002a0: a882 bc3e 5a02 6e40 652a 8ebe e4cc ed3f
000002b0: 1fe6 b23f a944 61bf 8104 853e 4072 4b3f
000002c0: f141 c7bf 9711 78be d280 12c0 52b4 3140
000002d0: 15ec dfbf 6d41 5b3e deae 33bc 19f8 33c0
000002e0: b92d 343b c765 d1bf 2e7a 783f 87e9 0f3e
000002f0: a6e6 c83f 62c4 42be 9a6a c3be eaba 62c0
00000300: bef5 1e40 593d adbf 280b 2b40 8033 7ebf
00000310: 9f6f 1640 56f8 57c0 434b 823c c597 1a40
00000320: 0388 c4be 662c 1c40 b732 0dbf 32ac 393f
00000330: 62b6 f03f f45a 45c0 7387 38c0 fa5c 823d
00000340: 7555 853e d652 673d 7376 babe ff6b 49bf
00000350: 97ff 7dbf bf71 50bd 4641 e8bc 42aa c53e
00000360: e00d aabc 697a 83bb cd57 12be 7765 3c3d
00000370: d90d d23f ef51 86bb aa02 19be 4ec3 8a3d
00000380: 5503 d5bf 1f7d f1be 839f 57c0 d7c5 3bbf
00000390: 222e c3bf 9078 663f 45c7 8bbf 8c49 94bf
000003a0: 8b00 a2bf a8df c0bf 95a7 433f 37a5 22c0
000003b0: 336e dabf 7e09 4640 4c42 9b3f 2e3f 2ebd
000003c0: 4663 a0be 78cc b3bd d0e6 8f3d d7d7 9fbe
000003d0: 3199 9b3f c453 943d dead 703d 6ea7 7cbf
000003e0: 040a 87bd a108 633d b3a6 493d c1ef 9c3d
000003f0: 04b2 36bf 521a 4dbc 9ab7 5ebd 2876 9d3e

MIX_conc_core_f.CT_motivate_mlp.0.bias f4 [16]
1.4281578 -0.09482327 4.4052353 -2.4624062 -0.7084693 0.5253216 -0.34609616 -0.3683975
-0.30127504 2.8109167 0.4602937 -0.6572704 0.14976606 2.1530302 1.1886053 -0.92623353
00000000: e0cd b63f b432 c2bd b0f7 8c40 1098 1dc0
00000010: 3e5e 35bf 7a7b 063f 8433 b1be 999e bcbe
00000020: b940 9abe 0fe6 3340 9eab eb3e df42 28bf
00000030: 465c 193e 3fcb 0940 3824 983f a41d 6dbf

MIX_conc_core_f.AT_forward_mlp.0.weight f4 [16, 96]
-0.2655961 -0.05522571 0.505919 -0.088364094 -0.3231152 -0.6060678 -0.40535367 0.2715826
-0.027908105 0.21470855 0.14700873 0.36477324 0.053939693 -0.18620245 -0.71353424 -0.16565172
0.118777074 -0.66366225 0.35501328 -1.3490882 -0.08404791 0.03483294 -0.09494099 0.026019514
-0.0018159644 0.03728056 -0.06593123 -0.008584447 0.23907171 0.3452321 0.42622474 0.1120414
0.04740458 0.298732 0.15308371 -0.031038597 -0.07812324 -0.07374903 -0.10877488 -0.06471065
-0.12548372 0.3762063 -0.7886514 0.27996698 -0.31526127 -0.32813752 0.21898714 -0.31501013
0.12593254 0.29526007 0.37168044 0.06222745 0.67910475 -0.11542619 -0.18517165 0.08252764
0.05012616 0.10608789 -0.09833024 0.095898494 0.060866155 -0.09536154 0.02765186 0.112668864
0.18865202 0.40751424 0.00072086963 -0.2276113 -0.39452952 0.07020187 -0.12459015 -0.12391099
-0.09094093 0.038864505 -0.37543067 -0.030579653 -0.15892023 0.023494821 0.3330583 -0.008449112
0.4503355 0.13113146 -0.04749028 0.07076619 0.2728064 -0.03908349 -0.09405266 -0.12575015
0.06706222 0.02656328 0.02808327 0.04226838 0.07826665 -0.01978748 0.10680162 0.26530337
0.58998543 -0.22936869 1.5243512 -0.46770582 0.18379016 -0.17266522 0.518526 -0.09292387
1.305166 0.027347473 0.27004573 1.3256501 0.38751754 -0.3238933 -0.18750174 0.30276707
-0.21928412 -0.11453537 0.83953565 -1.6012446 0.44554046 -0.23794217 0.22358292 0.40422404
0.007436718 -0.07264769 -0.21164164 -0.12822407 -0.06845582 -0.39649275 -0.516146 -0.10983321
-0.41057274 -0.21007209 -1.1072028 0.0046818564 0.37424868 0.17593324 -0.6465121 -0.5090275
-0.6773657 -0.6560572 -0.5000028 -1.1027596 -0.7037462 0.17190741 -0.1217758 0.36114573
-0.34596512 0.40352842 -1.1281894 1.305722 -0.21921879 0.3387138 0.012279053 -0.10407407
-0.008811076 -0.023618916 -0.08028262 -0.13259897 -0.042835414 -0.17662063 -0.10197037 -0.14524153
-0.2181376 0.037120212 -0.14468478 0.051932577 0.15358423 0.18829127 -0.14863312 -0.15047769
0.4206549 -0.15774655 -0.29729894 -0.07683164 -0.26909462 -0.034300882 -0.03404191 0.040267896
-0.259249 0.08071535 -0.006492224 0.18956265 -0.058248453 -0.0025946982 0.139337 0.0014563358
-0.009374794 0.021756424 -0.043813884 -0.074526876 -0.110908315 -0.14793 -0.16943578 -0.32944694
-0.28279498 0.034493435 0.20254149 -0.6607061 0.009376838 -0.53622615 0.14914595 0.2218674
0.24598321 0.12236951 0.02332305 -0.05143307 0.30331206 -0.14196412 -0.4538118 -0.18645671
0.07934207 -0.13123211 -0.02019628 -0.30102348 0.08911359 0.6705568 -0.33371553 0.6972946
0.07259183 0.054211583 0.18952619 0.2345646 0.116913006 0.5536362 0.13269337 -0.09455063
0.24003248 0.042791065 0.46915397 0.0062572295 -0.20572416 0.16148336 -0.09794578 -0.36519706
0.18745936 -0.39632413 0.50530034 0.0002866685 0.30128026 -0.24086457 0.27344164 -0.16965559
0.22763403 -0.05230493 0.26479006 -0.11203906 -0.1754672 -0.7805145 -0.14521663 0.42480746
-0.0015210166 -0.0041378164 0.0035373867 0.03744274 0.09312671 0.04343458 0.038772598 0.20461403
00000000: 36fc 87be 5b34 62bd e883 013f 3cf8 b4bd
00000010: 5b6f a5be 4227 1bbf 848a cfbe e00c 8b3e
00000020: 8a9f e4bc 8fdc 5b3e 7589 163e 8fc3 ba3e
00000030: deef 5c3d dbab 3ebe 2eaa 36bf 9ba0 29be
00000040: 6541 f33d c5e5 29bf 4dc4 b53e ecae acbf
00000050: 5021 acbd fcac 0e3d 6c70 c2bd e026 d53c
00000060: a705 eeba 80b3 183d f406 87bd c8a5 0cbc
00000070: 37cf 743e 43c2 b03e 213a da3e f675 e53d
00000080: 4e2b 423d 67f3 983e fac1 1c3e a844 febc
00000090: 14ff 9fbd bb09 97bd 5dc5 debd 0487 84bd
000000a0: ce7e 00be 1d9e c03e 0fe5 49bf d557 8f3e
000000b0: ed69 a1be a401 a8be 2a3e 603e 0249 a1be
000000c0: 76f4 003e 542c 973e e64c be3e 36e2 7e3d
000000d0: cfd9 2d3f 9164 ecbd a39d 3dbe 4004 a93d
000000e0: 1751 4d3d 9c44 d93d 5d61 c9bd 6e66 c43d
000000f0: ca4e 793d e94c c3bd 2786 e23c efbe e63d
00000100: ff2d 413e b5a5 d03e bef8 3c3a f012 69be
00000110: c6ff c9be ffc5 8f3d 1f29 ffbd 0cc5 fdbd
00000120: 3d3f babd 6330 1f3d 7338 c0be 2e82 fabc
00000130: fcbb 22be 3678 c03c 9e86 aa3e 256e 0abc
00000140: 6092 e63e 5347 063e 2b85 42bd dded 903d
00000150: 48ad 8b3e 0216 20bd ae9e c0bd a6c4 00be
00000160: eb57 893d 3c9b d93c e30e e63c 9c21 2d3d
00000170: 444a a03d 5a19 a2bc cfba da3d d8d5 873e
00000180: 4909 173f a0df 6abe f11d c33f 2377 efbe
00000190: 7d33 3c3e 27cf 30be 1fbe 043f df4e bebd
000001a0: ae0f a73f cf07 e03c 6f43 8a3e e7ae a93f
000001b0: b368 c63e 58d5 a5be 7500 40be 4904 9b3e
000001c0: 048c 60be 8591 eabd cfeb 563f 95f5 ccbf
000001d0: e11d e43e 1da7 73be ecf2 643e 74f6 ce3e
000001e0: b6af f33b 50c8 94bd 96b8 58be 2c4d 03be
000001f0: 9132 8cbd 1901 cbbe 2522 04bf 3cf0 e0bd
00000200: 9736 d2be 231d 57be d2b8 8dbf 426a 993b
00000210: 869d bf3e d827 343e d181 25bf a04f 02bf
00000220: d767 2dbf 5df3 27bf 2f00 00bf 3a27 8dbf
00000230: b628 34bf 7f08 303e 9765 f9bd 18e8 b83e
00000240: 5722 b1be 479b ce3e 8368 90bf e621 a73f
00000250: e47a 60be e56b ad3e 152e 493c c924 d5bd
00000260: 555c 10bc 757c c1bc 376b a4bd 06c8 07be
00000270: 3074 2fbd 0adc 34be d7d5 d0bd 32ba 14be
00000280: 775f 5fbe 5d0b 183d 3f28 14be 41b7 543d
00000290: 2f45 1d3e 6dcf 403e 4833 18be d316 1abe
000002a0: 1460 d73e 5088 21be 9137 98be e859 9dbd
000002b0: c5c6 89be 157f 0cbd 886f 0bbd f3ef 243d
000002c0: 49bc 84be 174e a53d b9bc d4bb b61c 423e
000002d0: ee95 6ebd d00b 2abb 5cae 0e3e 85e2 be3a
000002e0: bc98 19bc 873a b23c 3076 33bd 8ca1 98bd
000002f0: e623 e3bd f67a 17be 9380 2dbe 45ad a8be
00000300: 81ca 90be fd48 0d3d 0967 4f3e 0924 29bf
00000310: 4fa1 193c 1e46 09bf b7b9 183e 3531 633e
00000320: 06e3 7b3e de9c fa3d fb0f bf3c 7cab 52bd
00000330: b84b 9b3e 0b5f 11be 055a e8be 82ee 3ebe
00000340: 187e a23d b661 06be ab72 a5bc c01f 9abe
00000350: 3081 b63d 9ca9 2b3f c3dc aabe e681 323f
00000360: 06ab 943d f70c 5e3d 2713 423e b431 703e
00000370: 1670 ef3d 1abb 0d3f c5e0 073e c3a3 c1bd
00000380: 13cb 753e af45 2f3d f334 f03e 7209 cd3b
00000390: 5ba9 52be e55b 253e cc97 c8bd 1cfb babe
000003a0: 59f5 3f3e ffea cabe 5d5b 013f ff4b 9639
000003b0: 6841 9a3e 34a5 76be 8b00 8c3e 32ba 2dbe
000003c0: e518 693e b23d 56bd 9092 873e bc74 e5bd
000003d0: acad 33be cccf 47bf abb3 14be 5d80 d93e
000003e0: d95c c7ba 8596 87bb 80d3 673b 8f5d 193d
000003f0: 37b9 be3d 75e8 313d 04d0 1e3d 5786 513e

MIX_conc_core_f.AT_forward_mlp.0.bias f4 [16]
0.25049403 -0.38443926 0.2596349 -0.02568967 -0.112389795 -0.11929108 0.042318232 -0.41278988
0.0987927 0.020927053 0.2608851 -0.14576344 -0.07186014 0.039927647 0.10838 0.05447773
00000000: c140 803e 39d5 c4be deee 843e 2573 d2bc
00000010: 9f2c e6bd e24e f4bd e255 2d3d 3259 d3be
00000020: d453 ca3d 366f ab3c bb92 853e 0343 15be
00000030: 692b 93bd 2c8b 233d 55f6 dd3d 0a24 5f3d
